model.pth (torch, 762088 bytes, 7 tensors)

weight f4 [256, 578]
00000000: 341d 743c 8ef9 f43c b0ed 05bb f0ea abbb
00000010: f2e8 813c 80c6 efba 5df9 1b3d 96c8 8f3c
00000020: 7ea3 dcbc 609a 793c 36da eb3c ee87 bd3c
00000030: de82 d23c 3521 163d d456 19bd 5736 1e3d
00000040: 064d d63c 2357 183d 083f a7bb b895 cbbb
00000050: ec40 693c 5283 cfbc 41a1 0e3d 821e 08bd
00000060: 2039 8c3c 9a7d e33c b057 67bc ba4b c53c
00000070: 397b bdbc e067 033c bbdd 003d 52f7 bd3c
00000080: 80c4 5d3a e44a 953c 5a00 89bc 8a2c e43c
00000090: 648d 273c 87f3 dbbc 1ae3 0ebd bfe4 1e3d
000000a0: ac19 a23c 7834 39bc 1747 1fbd fa85 b5bc
000000b0: 8aac 4bbc eca9 41bc fc69 71bc 4144 cfbc
000000c0: e499 313c c8a2 4e3c c80b 12bd 0a7e cf3c
000000d0: 9dba babc ab49 96bc c6a1 4dbc b4bd 33bc
000000e0: ec10 373c d837 1fbc ca76 d63c 8cc4 5a3c
000000f0: b69a f13c c9c1 153d ca0e 18bd 6840 a8bb
00000100: 0f1b 01bd 9a3c 6fbc 2033 74bc 5007 703c
00000110: 4e37 9b3c 0c4b a03c 40b6 7eba 974a 0d3d
00000120: 7209 ce3c e053 14bd a764 063d 2721 253d
00000130: e8b3 3abc 422e 9ebc 000c 113c d08b 013b
00000140: 109d 97bb c034 09ba 6ae8 af3c 5247 3ebc
00000150: f39a 143d 30b0 e7bc b62a 19bd 0cfe 4abc
00000160: b05b b13b 976f 24bd 1896 c23b 000b 6cbb
00000170: 6236 23bd 6c33 033c 904f 043c b263 c23c
00000180: 42cc b73c 50c8 00bb 3e76 c73c 004c f438
00000190: 39e5 183d 4ee6 d9bc aed1 b13c 5093 963c
000001a0: 28b2 adbb a93f 07bd 1882 213c 0a12 be3c
000001b0: 381a 163c a0b5 463b 80f0 86b9 db1b 2a3d
000001c0: fc24 e4bc e3e7 acbc 304f 0cbb ecd4 25bc
000001d0: 9296 eb3c b07a aa3b 0a7f 44bc a4bd 843c
000001e0: 12d9 f23c ed95 17bd b6c7 e1bc 9b3c 0f3d
000001f0: 2875 4e3c e819 2abc 7e3d d6bc 8004 243b
00000200: 6d6f 14bd f3e9 8dbc 50b1 283b 44cd 2cbc
00000210: 44c3 1abd d04c 613c 1a51 90bc c3ef 0f3d
00000220: c682 97bc e01c 243b 10ee 163c 2b54 92bc
00000230: e48b 613c 7cd8 8c3c d911 073d 7037 5c3b
00000240: cf2f 0c3d 0cf4 7c3c 1c45 313c f7b9 25bd
00000250: dd8d b6bc 8285 b33c 6007 37bb dc03 2dbc
00000260: 1842 093c 60c7 56bc 80fc c939 6c47 22bd
00000270: f44a 0fbc 21f4 0a3d fe58 f93c fe08 eb3c
00000280: a459 5abc 8060 c239 9cd4 cdbc a474 2d3c
00000290: bfea b1bc 10bc 08bd 8329 adbc 4b5b 88bc
000002a0: f088 823c f0e9 0cbb 9849 823b a837 3f3c
000002b0: 3746 e9bc 004e 81b9 5966 183d 4099 a13a
000002c0: 588b aa3c 9826 29bc 551f 143d 1c6f 10bd
000002d0: 4352 0f3d f5b5 9abc a686 be3c 896a 0b3d
000002e0: 2090 d73b f6d4 ce3c 41b1 153d 1c5b 49bc
000002f0: b485 643c 7386 153d 2ef5 aa3c fa52 a33c
00000300: 6e09 73bc 5b5a 02bd 8642 833c a884 37bc
00000310: cb1a fabc 80f6 90bb f2a8 05bd 26c7 0bbd
00000320: 7a84 d93c c190 023d f89b fbbb 291f 153d
00000330: 484b c8bb c86a cabb 4011 acba fc7a f3bc
00000340: 40f3 6f3b b881 94bb c044 38bb 20cf da3a
00000350: 7daf 92bc 1f5f 143d 27e9 0e3d bf6d 1a3d
00000360: 38ca 643c 665d 973c 1029 3abb 5c01 edbc
00000370: 9c52 e1bc 844a 453c daef cc3c ab37 1d3d
00000380: c01c a8bb ae6c d73c 124d ccbc 45d2 aabc
00000390: 7def 8ebc 94b7 a53c 56f1 e23c 349f 7d3c
000003a0: 0e90 d9bc f6ed 863c 5135 c9bc 0e24 8f3c
000003b0: 0eae c53c 4199 053d 9002 993b 6a0e ef3c
000003c0: fd0c 25bd 3396 f9bc baeb b23c 8664 b43c
000003d0: 6c58 03bc 3270 02bd f891 063c 3ad6 8b3c
000003e0: b39f 21bd 1449 7f3c 348a f7bc 28c7 f4bc
000003f0: b011 943c 9803 853c 589d 363c c0db cdbb
0.014899541 0.029904153 -0.0020435862 -0.0052465126 0.015858147 -0.001829341 0.03807961 0.017551702
-0.026933428 0.01523456 0.028790575 0.023136105 0.025697168 0.036652762 -0.03743632 0.03862604
0.026159775 0.037192475 -0.0051039495 -0.006212916 0.01423667 -0.025331173 0.034821752 -0.03323222
0.017117083 0.027769852 -0.014120027 0.02408396 -0.023130046 0.008020371 0.03146146 0.02318922
0.0008459762 0.018224187 -0.0167238 0.02785327 0.010226581 -0.026849521 -0.03488455 0.038792368
0.019787632 -0.011304013 -0.038886156 -0.022158612 -0.012431273 -0.011820298 -0.014734741 -0.0253011
0.010839913 0.012612052 -0.035655767 0.025328655 -0.022794062 -0.018345674 -0.012550777 -0.010970522
0.011173468 -0.009717904 0.02617969 0.0133525245 0.029492717 0.03656176 -0.03712348 -0.005134631
-0.031519946 -0.014601851 -0.014904767 0.014650181 0.01894727 0.019567035 -0.00097164884 0.034494963
0.025150988 -0.036212802 0.032810833 0.04031482 -0.011395432 -0.019309167 0.008852959 0.0019767173
-0.0046268776 -0.00052339956 0.021473128 -0.011613684 0.036280584 -0.028282255 -0.037394248 -0.012389671
0.0054125413 -0.040145483 0.0059383027 -0.0036017299 -0.039846785 0.008007865 0.00807561 0.023729179
0.022436265 -0.0019650646 0.024348374 0.00011648983 0.03732798 -0.026599076 0.021706428 0.018380791
-0.005300779 -0.033019695 0.009857677 0.023201961 0.0091615245 0.003032066 -0.00025737658 0.04153047
-0.027849667 -0.021106666 -0.0021409504 -0.010121565 0.028758321 0.005202614 -0.011993179 0.016203709
0.029644523 -0.037008215 -0.02756105 0.034969907 0.012601174 -0.010382153 -0.026152369 0.0025027096
-0.036239076 -0.01732347 0.0025740452 -0.010546986 -0.037783876 0.013751224 -0.017616797 0.035140764
-0.018494975 0.0025041625 0.009212032 -0.0178624 0.013766263 0.017193072 0.032976005 0.003360238
0.03422528 0.015439045 0.0108197 -0.040460553 -0.022284443 0.021914247 -0.002792798 -0.010560002
0.008377574 -0.013109058 0.00038525835 -0.039618894 -0.008745898 0.033924226 0.030437943 0.028690811
-0.013327036 0.00037074462 -0.025125794 0.010586891 -0.021718381 -0.033382475 -0.021137958 -0.016645094
0.015934438 -0.0021501742 0.003976058 0.011670984 -0.028475864 -0.00024662912 0.03720698 0.0012328997
0.020818397 -0.010324143 0.036162693 -0.035262212 0.03499056 -0.018885592 0.023257565 0.034037147
0.0065784603 0.025248032 0.036545996 -0.012289789 0.013947893 0.036505174 0.020868864 0.019937027
-0.014833791 -0.03182445 0.016022932 -0.011201061 -0.030530354 -0.0044239163 -0.032631822 -0.03412547
0.026552428 0.03187633 -0.007678505 0.03640667 -0.00611249 -0.00617728 -0.00131277 -0.02972173
0.0036613494 -0.0045320652 -0.002811715 0.0016693808 -0.017905945 0.036223527 0.03489032 0.03770232
0.013964228 0.018477153 -0.0028405823 -0.028931312 -0.027505212 0.012041692 0.025016714 0.038383167
-0.0051303804 0.02629694 -0.024939094 -0.020852217 -0.017448181 0.020229138 0.027702969 0.0154798515
-0.026557948 0.01647089 -0.024561556 0.017473247 0.024130847 0.032616857 0.004669495 0.029181678
-0.04029559 -0.030467128 0.021840919 0.02202059 -0.008016687 -0.03184528 0.008213513 0.017069925
-0.03945894 0.015581388 -0.030217268 -0.029880121 0.01807484 0.016237065 0.011145912 -0.0062822998

bias f4 [256]
00000000: 5511 073d 8e55 62bc 30c2 ac3b 8ad9 e73c
00000010: 86cb 7bbc b23f e7bc 8732 223d 510b 28bd
00000020: f874 61bc c0b1 c33a b833 ad3b 3c02 2abd
00000030: 884e 483c 80e3 563b e072 763b 9c69 5b3c
00000040: ea29 cc3c 42af 38bc af22 1c3d 5881 afbb
00000050: 1437 203c a01d bcbb 34af 7d3c 78e5 b4bb
00000060: 5045 6c3b 0efd a03c 7873 e9bc 6017 183c
00000070: 9e3c 8a3c 5e43 2ebc e6b2 823c da3a 75bc
00000080: 8058 ed3a 1003 efbb 47db 223d 0fe4 20bd
00000090: f44d 3e3c 2ec7 e33c f84e 413c ed8e 14bd
000000a0: de79 b1bc a004 d63b b180 11bd 8bd9 26bd
000000b0: e531 293d 4ebe 8e3c 70e6 61bc c5af 203d
000000c0: c8a4 f9bb 0003 efba 47e0 21bd 528d df3c
000000d0: 76dd e8bc 083a 403c b6c9 94bc fa46 ee3c
000000e0: 84d2 01bd aaa5 80bc ce51 c23c 60de e6ba
000000f0: 16f6 8f3c e0ed 2c3b eecb ee3c ec56 1dbd
00000100: acb1 4e3c 49a5 d0bc 762b e7bc 78ee c6bb
00000110: d60d e03c 41cd c7bc 817d 27bd 8291 b2bc
00000120: c5a3 16bd 3025 24bd 1f51 1e3d c576 0a3d
00000130: 20be 7fbb ad97 233d 86a2 03bd 4061 0cbd
00000140: 78d2 b2bb f608 9a3c 049d 1fbc 2d81 263d
00000150: 67ae 073d 6c37 293c c0da 5a3c 1516 283d
00000160: 183b b2bb e460 0dbc 3fcc 25bd 30b4 10bb
00000170: 60c7 473b 60c4 d5ba 4188 173d 9a86 16bd
00000180: 009c f938 1fc0 cfbc 5893 253c 8048 a2bc
00000190: 94a3 083c c8d5 0fbd 8c42 3f3c 00a5 15bc
000001a0: b27a a3bc a43d 1cbc 18de adbc 5802 8ebb
000001b0: e6fc cebc 4fb5 1a3d a0c1 c7bb 602c 11bd
000001c0: 4070 a9ba 3a18 f3bc 4137 16bd 765b de3c
000001d0: f0a3 19bc cc2e 643c 58ee 503c b4f1 1b3c
000001e0: 1d8a 0cbd faea f93c bb3d f4bc b655 08bd
000001f0: a0c9 9a3a 8662 b73c e375 97bc 986a 9c3b
00000200: 7974 24bd 1fcc 123d 8225 aa3c 46eb 27bd
00000210: 00ed 123c 1554 213d 0b8e 19bd d8ca b7bb
00000220: 40d7 83bb 971d 173d d64e a93c 32d7 00bd
00000230: 4dff 023d d709 18bd ff6a 183d e0d4 50bb
00000240: e473 893c 5433 1cbc 32ad ea3c c0b1 043b
00000250: 1f4a 183d b43e 713c 9e91 c23c 80db e9ba
00000260: 2010 bcbc 00a9 6f3c 120c 28bd 84e2 1d3c
00000270: 7aa1 ef3c 4e16 863c 0013 84ba 6489 7ebc
00000280: bffc cabc 8edd 2fbc 62a9 cc3c 439b 023d
00000290: 20e1 fcbc 2205 c13c 6aa4 933c 5c62 c2bc
000002a0: 6422 9b3c e0fb d4ba c5b9 14bd a3c5 093d
000002b0: 30e5 16bc 4113 8bbc 20ae ac3b 1be5 1b3d
000002c0: 4ab1 a33c 6480 89bc 92b6 fbbc fe47 bebc
000002d0: b8a7 a1bb dc51 1ebd 80a3 933a 28c1 fabb
000002e0: ec7b 043c bdac 06bd 1a4e 63bc 2f3c 01bd
000002f0: a609 973c e041 67bb edb4 153d d61e 80bc
00000300: 50f5 0cbd 286a 0e3c 07c8 cabc 9fc5 b4bc
00000310: af2c 0c3d 8576 91bc e0dc 2b3c d531 dbbc
00000320: 408b 0e3c dc76 983c ad9b 17bd a094 8e3c
00000330: a682 92bc 404e 663b 1ffa 19bd 4115 063d
00000340: e3e4 23bd 8dac 003d d0d0 8f3b 9608 e93c
00000350: ef33 1f3d 59ad 053d 800c 523b 77a3 a4bc
00000360: 70e4 233c 1009 12bc 0ab3 32bc 6091 293c
00000370: 963a d43c cdb4 013d 463e d4bc fbf9 e2bc
00000380: d03a 093b 0565 21bd 5c47 023c f836 9b3c
00000390: db31 b1bc d0c1 863b a59c 013d 16ff 0ebd
000003a0: e2c8 32bc 30a6 9d3b 243a 3c3c 3b57 9ebc
000003b0: 941e 9c3c 5e24 933c f0bb f0bb d518 15bd
000003c0: 47a5 0f3d c0ac e1bb 9f82 d1bc 66f5 e3bc
000003d0: 03be 1d3d 16f1 dcbc fc15 65bc fd5c 293d
000003e0: 2015 053c f0c7 4a3b c3f5 1abd 7f1f 22bd
000003f0: e86e bf3b 5260 ee3c 8683 aa3c 90c5 c0bb
0.032975513 -0.013814343 0.0052721724 0.028301973 -0.015368348 -0.028228614 0.039598968 -0.041026417
-0.013760798 0.0014930293 0.0052857064 -0.041506037 0.012225755 0.003278941 0.0037605092 0.013391878
0.02492233 -0.0112722535 0.038119014 -0.005355995 0.009778757 -0.0057408363 0.015483666 -0.005520519
0.0036052056 0.019651916 -0.028497443 0.009282917 0.016874608 -0.010636179 0.015954446 -0.014967645
0.001810804 -0.0072940663 0.0397599 -0.039279994 0.011615265 0.027804937 0.011798613 -0.036269117
-0.021664556 0.006531313 -0.03552312 -0.04073481 0.04130735 0.017424729 -0.013787851 0.039230127
-0.0076185204 -0.0018235147 -0.03952053 0.027289066 -0.028425913 0.011732586 -0.01816259 0.029086579
-0.031694904 -0.015703995 0.023720648 -0.001761388 0.017573398 0.0026386902 0.029149976 -0.038412973
0.012615602 -0.02546944 -0.028218966 -0.006070908 0.027350347 -0.024389865 -0.040891174 -0.0217979
-0.036777277 -0.040074527 0.03865158 0.033804674 -0.0039023235 0.03993957 -0.032137416 -0.034272432
-0.0054572187 0.018803101 -0.009742025 0.040650535 0.033125307 0.010328155 0.013357818 0.041036684
-0.0054391734 -0.008629058 -0.040477987 -0.0022080056 0.0030483827 -0.0016309135 0.036995176 -0.03674946
0.000119023025 -0.025360165 0.01010593 -0.019809961 0.008339781 -0.035115987 0.011673581 -0.009133577
-0.019955967 -0.009536181 -0.021224067 -0.0043337755 -0.025267076 0.037770566 -0.00609608 -0.03544271
-0.001292713 -0.029674638 -0.036673788 0.027143221 -0.009377465 0.013927173 0.012752138 0.009518076
-0.034311403 0.030507553 -0.029814592 -0.033284865 0.0011809357 0.022385847 -0.01848883 0.004773449
-0.04015014 0.035839196 0.020769838 -0.04099586 0.008967638 0.039386827 -0.03748898 -0.0056088977
-0.0040234625 0.036893453 0.020667475 -0.031455226 0.031981755 -0.03711876 0.037211414 -0.0031865165
0.016778894 -0.009533722 0.02864704 0.0020247549 0.037180062 0.014724422 0.023751076 -0.0017841905
-0.022956908 0.014627695 -0.041027136 0.009636525 0.029251803 0.016368058 -0.0010076463 -0.015535686
-0.024778722 -0.010733975 0.024983112 0.03188635 -0.030869067 0.023562018 0.018022735 -0.023728542
0.018937297 -0.0016249381 -0.036309976 0.033635747 -0.009209916 -0.016976954 0.0052697808 0.03806029
0.019981999 -0.016784854 -0.030726705 -0.023227688 -0.0049333237 -0.038652286 0.0011263937 -0.0076524206
0.008086186 -0.03287958 -0.013873601 -0.031551536 0.018437218 -0.0035287067 0.036549497 -0.015639704
-0.034413636 0.008692302 -0.024753584 -0.02206689 0.0342223 -0.01775671 0.010489672 -0.02675716
0.008700192 0.018611364 -0.0370137 0.017404854 -0.017884564 0.0035141855 -0.03759205 0.032735113
-0.040013205 0.031414557 0.004388906 0.028446477 0.038867887 0.03263602 0.0032050908 -0.020097477
0.010003194 -0.0089132935 -0.010906944 0.0103496015 0.025906842 0.031666566 -0.0259086 -0.02770709
0.0020939596 -0.03940298 0.007951584 0.01894711 -0.021630218 0.0041124597 0.03164353 -0.034911238
-0.010912152 0.004811071 0.011488471 -0.019328704 0.01905755 0.017961677 -0.0073466226 -0.036400635
0.03506973 -0.0068870485 -0.02557498 -0.027826976 0.038511287 -0.026970427 -0.013982292 0.041348446
0.008122712 0.0030941926 -0.037832033 -0.03958082 0.0058420785 0.029098663 0.020814668 -0.0058829263

weight f4 [128, 256]
00000000: 2e49 0a3d 34fe 15bd bc0a 0cbd a8b2 693d
00000010: 406d bbbc 6008 4bbc a863 343c f436 873c
00000020: d4cb 1ebd a65a 36bd d85e 3ebd 6815 263c
00000030: b8b2 413c 04cb 53bd 68f7 c43c c0c3 c63a
00000040: f06c 8fbb bc6f 77bd 0a73 313d 1cea 00bd
00000050: e055 823b d099 fbbb c08f f0bb b838 b63c
00000060: c4bc 2f3d 104e 4e3c 5acb 1bbd b01f 26bc
00000070: ec7a 213d b41a 38bd 7472 d23c 5853 a73c
00000080: 007e a3b9 1c90 143d 7848 c7bc e8aa 433d
00000090: 8012 b8ba 4cb0 aebc 065d 69bd 8090 d1bc
000000a0: 0a47 743d dc94 013d 6086 a5bb dc09 e8bc
000000b0: 4008 f7bb ca6a 7cbd 8c16 50bd 88ff 723d
000000c0: c0c5 a73c 5878 0f3c 4cb1 ac3c 9a22 31bd
000000d0: aeba 393d 0aca 52bd a067 05bb 2e37 2e3d
000000e0: b466 cabc 7883 60bc 905e 46bc c416 0e3d
000000f0: 00f0 ca3a f07d 3dbd 44c6 a8bc 5c31 2b3d
00000100: 10ca 963c b68c 41bd 5630 49bd ca6a 3a3d
00000110: 102d c4bb e81a 633d c01e bebb 782a 273d
00000120: 966f 603d cec4 243d ecb2 c6bc a890 84bc
00000130: 4448 4dbd 28a6 b8bc 80ad 00bd c079 dabb
00000140: b8b9 4fbc b04d 63bc d6ef 30bd 9abb 69bd
00000150: c4bc 71bd b037 ec3c b0ed b3bb a811 59bd
00000160: b838 9d3c 6626 53bd 70d5 a73b 104f b53b
00000170: 2070 b33c a661 27bd f2d8 52bd 3ccc 76bd
00000180: c0c4 a73c ac42 30bd 6c72 633d 2a5e 61bd
00000190: 408d d9bb 408e cd3c 76af 453d dc7a 64bd
000001a0: 6233 533d 0079 ad39 2041 46bb 1633 753d
000001b0: c8d8 cb3c 2880 8c3c ba8e 38bd 000c 8bb9
000001c0: a0df 193c 18d6 17bd 809e 26bc 28c0 da3c
000001d0: 449f 4abd 9c47 d93c a0eb 62bd b036 243d
000001e0: e87e 363c 648d 973c 04a9 f53c f486 5a3d
000001f0: b496 59bd e6c5 6bbd 6075 b63b dc22 a9bc
00000200: 8666 3d3d 403c 78bb 82af 06bd d0bc 283d
00000210: 581e b6bc 68ac 863c ac52 66bd 4027 baba
00000220: 26d8 34bd a263 043d 8e76 603d 586f 16bd
00000230: 2ac0 04bd e804 28bc 046b 88bc 74a7 c53c
00000240: 1026 a6bc 7ccd 1dbd f861 80bc 6030 b93b
00000250: a47c 7a3d 1e5b 66bd 9a1f 463d 18d7 7abd
00000260: e087 e0bc 8657 6cbd c8b5 4dbc 0047 833c
00000270: 40bd 553b 34c6 393d a08e c1bc 80d1 17bd
00000280: ce7e 40bd 32ea 5abd d0df 683c 4a59 77bd
00000290: 182c 3e3d 08e8 303d 80a2 4b3a 60b6 d4bc
000002a0: 7470 c73c 70ae b4bb b03e 8e3c c050 d83a
000002b0: 2e90 6fbd 5e89 683d 5000 a4bc 2e56 5f3d
000002c0: 7e05 6d3d 7017 443d 902d 143c 4af9 52bd
000002d0: d699 7bbd d6c3 04bd 60cb 93bb 04e6 3fbd
000002e0: f8e8 533c 183f 42bd d6f7 783d 2633 25bd
000002f0: 687b 1b3c e0df 8f3c 54de 3bbd c019 f73b
00000300: 569f 35bd 48fa 6ebd 88ea 683d 7817 663d
00000310: 1cd4 123d 74a2 c7bc fabf 013d ac28 02bd
00000320: 785e 39bc 9496 33bd d8c1 483d e025 1abd
00000330: 2029 e2bc 6074 be3c 10b6 b3bc 9e79 37bd
00000340: 16d0 0a3d c0a3 5b3b 2ccf ed3c b822 32bd
00000350: 08a5 553d 8aa6 4cbd b43b 663d 7079 d53c
00000360: e017 10bc 44ac babc a0a6 36bc bcc8 ff3c
00000370: dcfc 983c c401 71bd bc20 eabc 46dc 1fbd
00000380: 90de c2bc 1801 103c 1252 69bd bef8 69bd
00000390: 6072 253b 30c5 243c 3aab 7d3d ca16 76bd
000003a0: 50e6 da3c 04de 5b3d 4e9b 2e3d a8ac b33c
000003b0: c4d2 d3bc 7cca 9fbc b012 67bd 5837 b63c
000003c0: 74fc a2bc 4acc 3dbd 5e9f 373d da30 75bd
000003d0: 3421 0c3d 70ef 703c f8fd 3f3c 245e c0bc
000003e0: d4b0 8f3c f027 88bc c4fa 4abd d4dd 28bd
000003f0: 00de 77bd 34ec 9ebc 247c 143d 5850 763d
0.033761196 -0.03661938 -0.034189925 0.057055146 -0.022879243 -0.0123921335 0.011010088 0.016505696
-0.038768604 -0.044520043 -0.04647717 0.01013694 0.011822395 -0.051707283 0.024043754 0.0015164539
-0.004377 -0.060409293 0.0433226 -0.031473264 0.0039775223 -0.007678248 -0.007341355 0.022243842
0.04290463 0.012591854 -0.038035728 -0.010139391 0.039423868 -0.04494734 0.025689341 0.020425484
-0.0003118366 0.036270246 -0.024326548 0.04777041 -0.0014043599 -0.0213243 -0.05697348 -0.025581598
0.05963806 0.031636104 -0.005051419 -0.028325014 -0.0075388253 -0.06162528 -0.050802752 0.059325725
0.020480037 0.0087567195 0.021080635 -0.04324589 0.045344047 -0.05146221 -0.0020355955 0.042533092
-0.024707176 -0.01370322 -0.012107506 0.03468968 0.0015482903 -0.04626268 -0.020602353 0.04179512
0.018406898 -0.047253333 -0.049118362 0.045512 -0.005986817 0.05544558 -0.0058020055 0.040811986
0.054793917 0.04022675 -0.024255238 -0.016182259 -0.050117746 -0.022540167 -0.031415462 -0.0066673458
-0.012678556 -0.013873503 -0.043197475 -0.057063676 -0.05901791 0.028835148 -0.005490981 -0.052995354
0.019192085 -0.05155029 0.0051218793 0.0055331066 0.021904051 -0.04086461 -0.051476426 -0.060253367
0.02047956 -0.043032333 0.055529043 -0.055021442 -0.0066391528 0.025092244 0.048263036 -0.05578123
0.051562674 0.00033087283 -0.003025122 0.059863172 0.024883643 0.017150953 -0.04505799 -0.00026521087
0.009391695 -0.03706941 -0.010169625 0.026702955 -0.049468294 0.026523404 -0.05540049 0.040091217
0.011138655 0.018500037 0.02998782 0.053351358 -0.053122237 -0.057561778 0.0055681914 -0.020646505
0.046240352 -0.0037877709 -0.03288222 0.04119569 -0.022231266 0.016439632 -0.056231186 -0.0014202371
-0.044151448 0.03232158 0.054800563 -0.03672728 -0.032409824 -0.010255076 -0.016652592 0.0241277
-0.020281821 -0.038526043 -0.015671715 0.0056515187 0.061154023 -0.05623924 0.04836998 -0.061240286
-0.02740854 -0.057700656 -0.012555547 0.016025066 0.0032614022 0.045355037 -0.02362758 -0.03706503
-0.04699593 -0.053446002 0.014213517 -0.060387887 0.04642877 0.043190032 0.000776805 -0.02596587
0.024345614 -0.0055139586 0.017363876 0.0016503558 -0.05848711 0.05677163 -0.02001968 0.054525547
0.057866566 0.047873914 0.009044066 -0.05150727 -0.061426006 -0.032413326 -0.004510328 -0.04685022
0.012933962 -0.047423452 0.06078323 -0.040331982 0.009489872 0.017562807 -0.045866325 0.0075409114
-0.044341408 -0.058344156 0.05686429 0.056174725 0.035846815 -0.024369456 0.031677224 -0.03177707
-0.011314027 -0.043844774 0.04901299 -0.037633777 -0.0276075 0.023248851 -0.0219374 -0.044793718
0.033889852 0.003351435 0.029029451 -0.04349014 0.05215934 -0.04996351 0.05620928 0.026058882
-0.008794755 -0.02278722 -0.011148125 0.031223647 0.01867526 -0.058839574 -0.028580062 -0.03902843
-0.023787767 0.008789323 -0.056963034 -0.057121985 0.0025245175 0.010056779 0.061930872 -0.060080327
0.02672115 0.053678527 0.04262858 0.021932915 -0.025857337 -0.019505732 -0.056414306 0.022243187
-0.01989577 -0.046337403 0.04482972 -0.05986104 0.034211352 0.014705524 0.011718266 -0.02348239
0.017540373 -0.016620606 -0.049555555 -0.041227177 -0.06051445 -0.01939974 0.036251202 0.060135216

bias f4 [128]
00000000: d6d5 123d 64a2 d63c e025 88bb 2803 503c
00000010: 0cee 1bbd 7a75 623d 74fb ed3c 1212 07bd
00000020: a025 763d 485d 92bc 54ba 7d3d 5ca4 e23c
00000030: 1060 38bc a8ae 233c 466a 713d 6e3e 1c3d
00000040: aaac 50bd 7cf2 7f3d 00dd fab9 d07a e43c
00000050: 0c83 00bd c0d2 143d 78ca dcbc 6cb7 a23c
00000060: 4888 ed3c 7c83 043d 86d1 783d 8453 edbc
00000070: 04e8 f8bc 603a 25bd 18b0 303d 58e2 04bc
00000080: 147a de3c 6014 f33c f074 563d 440d 773d
00000090: b0c5 a23c 2a4a 263d 60fd c9bc 1c83 e13c
000000a0: feb9 003d 6005 42bd 4016 fc3a a4ea e63c
000000b0: 04e5 dcbc 1c63 eb3c 60de 6d3c 3888 763d
000000c0: a874 42bd 1449 d4bc a0ae 363d da3f 6d3d
000000d0: 00a9 4f3c 68ce 2dbc 48f1 42bd 60a4 6c3b
000000e0: 08b0 3c3c 1604 2ebd 12d3 1b3d 00c7 b539
000000f0: 8838 efbc 12da 68bd 08b9 283c 9cff 9fbc
00000100: a8e5 743d 604d bcbc 9cda 55bd 601b 933b
00000110: 003b c9ba 0aa9 783d a442 4c3d c08e a5bb
00000120: 1c7a debc 041f 6dbd acb1 4abd d8b7 cbbc
00000130: 30b7 1fbc fe23 2fbd 0ec5 753d 4a7d 2bbd
00000140: 621c 2b3d 528a 3abd 80a0 c43c 0048 f53a
00000150: 1880 403d 8056 45bb acad bdbc d876 77bc
00000160: 8079 803b 9e47 65bd ead1 75bd daf7 383d
00000170: 3078 e53c 9a5f 203d 4815 62bc ac5d 2ebd
00000180: 5669 013d b421 acbc a0a8 39bc 5cbf 24bd
00000190: f662 1bbd aa31 5f3d 1a6c 543d d4e4 f83c
000001a0: cc59 babc a45c 8b3c 1a66 69bd 485f d7bc
000001b0: 4ccf e83c a0aa c93c 16fc 6f3d 083d 46bd
000001c0: aa1c 573d 2892 583d 3250 203d be71 77bd
000001d0: 807e 7c3a 3016 b23c 606e 333b 801e 8dbc
000001e0: c8d9 723d 00b1 5dbd f43d f03c 202d f8bc
000001f0: ca0e 4cbd ecea 153d 4ca9 be3c 4c98 16bd
0.03584846 0.02620048 -0.0041549057 0.012696065 -0.038068816 0.055287816 0.029050566 -0.032976218
0.060094476 -0.017866746 0.061945274 0.027666263 -0.011253372 0.009990372 0.05893924 0.038145475
-0.050945915 0.06248711 -0.00047848374 0.027890593 -0.031374976 0.0363338 -0.026952013 0.019862853
0.028995648 0.032351956 0.060746692 -0.028970487 -0.030384071 -0.040338874 0.043136686 -0.008110605
0.02715782 0.029672801 0.052357614 0.060315385 0.019869655 0.040598072 -0.024656951 0.027528338
0.031427376 -0.047368407 0.0019232705 0.028188057 -0.026964672 0.028733782 0.01451835 0.060188502
-0.047474533 -0.025913753 0.04460013 0.05792222 0.01267457 -0.010608293 -0.047593385 0.0036108717
0.0115165785 -0.042484365 0.03804309 0.00034671277 -0.02920176 -0.056848593 0.010298021 -0.019531064
0.05978933 -0.022986114 -0.052210435 0.0044893473 -0.0015352666 0.060708083 0.04986824 -0.0050524175
-0.027157836 -0.057890907 -0.049485847 -0.024867937 -0.009748265 -0.042758934 0.06000238 -0.04186753
0.041775115 -0.04554207 0.024002314 0.0018713474 0.04699716 -0.0030111372 -0.023154102 -0.015104018
0.003920734 -0.055976503 -0.060014643 0.045158245 0.028011411 0.039153673 -0.013799019 -0.0425698
0.031594597 -0.021012165 -0.011331707 -0.040221557 -0.037936173 0.054490723 0.051860906 0.030382551
-0.022747897 0.017011948 -0.056982137 -0.02629055 0.02841916 0.024617493 0.058590017 -0.048398048
0.05251757 0.05287376 0.03913898 -0.060411207 0.0009631887 0.021739095 0.002737902 -0.017226458
0.059289724 -0.05412388 0.029326417 -0.030294955 -0.04981879 0.036600992 0.023274086 -0.036766335

weight f4 [64, 128]
00000000: 807a a53a 88f0 693c 3010 a1bd 841f 73bd
00000010: 6074 debb a06c a23b 708d aabb 47e5 a33d
00000020: 3b82 973d 0c4c a73c 7d1e 8dbd b262 233d
00000030: b46a cbbc 9b09 9d3d d6ce 783d 9005 06bc
00000040: 2029 633c b22c 8ebd 207d 833c d95a 893d
00000050: 2728 0fbd 42a7 9cbd 9cb9 8dbd 63fe 62bd
00000060: 78c0 86bc a6b0 1dbd 2bb7 873d e673 243d
00000070: 7a99 563d 80ab 33bb 10b6 9cbc 4c39 ca3c
00000080: feba 543d 4006 e03c c4b8 903c 5866 b83c
00000090: dc42 b7bc f911 94bd fcc8 803c fc80 81bc
000000a0: ea2e 2b3d d91c a5bd b2a8 92bd 1cd6 883c
000000b0: 4a75 07bd 0079 33bb d0cc 30bc 697d 943d
000000c0: 4b3e 963d 144d 8ebc 16a8 393d 6e16 433d
000000d0: 81a7 9a3d 0685 6abd 3efd 203d 7e8f 9ebd
000000e0: b359 84bd f0a8 bdbb cc11 5dbd f3d9 12bd
000000f0: 2eaa fbbc 7548 ad3d 2dc3 b33d f112 58bd
00000100: 5aa6 21bd 1e81 6a3d feff 4e3d 84b7 923c
00000110: f765 8c3d db11 2abd b019 093c 1a53 5abd
00000120: a31f 843d de59 683d 04dd 8dbd f776 9b3d
00000130: 00f1 81bd c252 7e3d 2450 8ebd a90b aa3d
00000140: 5e2b 663d 439e 8e3d 1a27 603d 9881 6a3c
00000150: 5a3b 053d ad9e 6abd 735c 23bd e105 a63d
00000160: d213 603d 3cd9 c3bc 574d b3bd 95db ab3d
00000170: 2f2e 893d dc94 00bd 9c58 88bd 1aad 3f3d
00000180: 6fb2 a33d d21f 3a3d 5f9a 843d 444e 013d
00000190: f089 473c 8f6f a73d 59ed ac3d 4278 743d
000001a0: 5b43 973d 78c1 973c 14ed df3c f690 203d
000001b0: 7425 153d 988a 23bc 3f44 ab3d 40f0 673c
000001c0: 9aea 233d 02a5 3f3d e8cc 043d 7046 543c
000001d0: 9893 e6bc 08cd b7bc 7668 6f3d 185a 03bc
000001e0: 38eb 79bd a26c b3bd ca24 163d 884a 3cbd
000001f0: f8b1 44bc 9f15 943d c0d6 a0ba b1ac aabd
00000200: e1cf 24bd 695d 9c3d 8d23 a63d b9ef a7bd
00000210: 28dd 81bd f4f6 90bc 1aa6 6b3d 9a87 04bd
00000220: a181 993d 061b 493d a879 edbc b3b3 94bd
00000230: ae16 4b3d ef15 8e3d 7cc1 b93c 585f a4bd
00000240: a0f5 77bb 70a5 a5bb 301e 5cbc c3b5 3fbd
00000250: 68f8 f63c dea9 3abd 6250 23bd 6f57 3cbd
00000260: 00b5 fa3b 9a48 203d 6495 95bc 3dc2 a93d
00000270: 4a40 273d 0011 543c 785c 6dbc eeea 403d
00000280: 18bf 5a3c f812 823c 0982 8f3d a516 af3d
00000290: 7478 8fbd 87f1 a63d 72b2 343d 40f1 c9ba
000002a0: 7cff cebc ae48 97bd a0b4 8a3c b074 6a3c
000002b0: ead2 673d 7c01 a7bc 5e69 79bd 003b 563b
000002c0: 6833 263c ec93 91bd 1ca3 a23c ecca 113d
000002d0: beba 6f3d ef93 a6bd f64b 4f3d cf5c ad3d
000002e0: 92c7 f6bc c091 ceba 90de 50bd 28db 0b3c
000002f0: 7298 633d 56bf 3e3d d83b 0a3d e03e 67bc
00000300: 967d 6f3d 4755 993d 20d0 28bb baf2 4e3d
00000310: 416d 823d b11a 853d ab4e a13d b547 54bd
00000320: 2c8b 8dbc 4419 ccbc 727e 443d 79c1 99bd
00000330: e386 93bd 27ef 4dbd 8160 883d 8e0f 013d
00000340: 40d2 96bd e8bf 75bd c09d 7a3c 2d93 8cbd
00000350: b5cf b2bd a2f3 603d 0934 16bd e830 d03c
00000360: 7e51 3f3d d85b ccbc 9500 843d e65f 263d
00000370: c61f 55bd 7604 763d 002a 933b daf6 1a3d
00000380: 7ed5 3e3d c7a2 b3bd c775 a2bd ab01 70bd
00000390: aa48 7e3d 9237 70bd 8031 9c3a 3381 8abd
000003a0: 4397 a63d 3c10 fabc e0e1 28bc e89e 49bc
000003b0: beaa 673d c479 bf3c dc7c 993c 9f88 883d
000003c0: 3546 8cbd 3cc8 1bbd 5e10 063d 30fe b9bc
000003d0: da0f 0e3d b890 113c 5604 273d c702 1fbd
000003e0: 508f 49bc c037 48bd f0cf 21bd c29c 98bd
000003f0: bece 133d e677 7dbd afac b03d 04a2 a9bc
0.0012625009 0.0142785385 -0.07864416 -0.059356228 -0.0067887753 0.0049567968 -0.005204849 0.080027156
0.07397886 0.020422004 -0.06890581 0.039889045 -0.024831153 0.07667848 0.06074413 -0.008180037
0.013864785 -0.06942119 0.016050875 0.06706781 -0.0349504 -0.076490894 -0.06920168 -0.055418383
-0.016449198 -0.038498543 0.066267334 0.040149592 0.05239246 -0.0027415454 -0.019129783 0.024685524
0.051936142 0.02734673 0.017666228 0.022509739 -0.022370748 -0.072299905 0.015720837 -0.015808575
0.041792788 -0.08062143 -0.07161082 0.016703658 -0.03307084 -0.0027385354 -0.010791019 0.072504826
0.073361 -0.017370738 0.045326315 0.047628812 0.0755148 -0.057255767 0.03930401 -0.07742213
-0.06462421 -0.005787961 -0.05397205 -0.035852384 -0.030720796 0.08461086 0.08777461 -0.05275244
-0.039465286 0.057252042 0.050537102 0.017909773 0.06855386 -0.041520935 0.008367941 -0.053301908
0.06451347 0.05672633 -0.06926921 0.0759105 -0.06344795 0.062090643 -0.06948879 0.08303005
0.056193702 0.0696378 0.05472479 0.014313124 0.032527305 -0.05728023 -0.03988309 0.0810659
0.054706402 -0.023907296 -0.08754986 0.08391491 0.06698262 -0.031391963 -0.06657526 0.046795942
0.07993018 0.045440502 0.064747564 0.03156878 0.012178883 0.08175575 0.08443708 0.059685
0.07385894 0.01852487 0.027334727 0.039200746 0.03641267 -0.009981774 0.08362626 0.014156401
0.040018655 0.046788223 0.032421976 0.012956247 -0.02814655 -0.022436634 0.05844923 -0.0080170855
-0.061015338 -0.087609544 0.03665618 -0.045969516 -0.012005322 0.072306864 -0.0012271032 -0.083337195
-0.04023731 0.07635004 0.081122495 -0.0820002 -0.0634101 -0.017695881 0.057531454 -0.032355882
0.07495428 0.049098037 -0.028988674 -0.072608374 0.049582176 0.06937777 0.022675268 -0.08025998
-0.0037835613 -0.005055122 -0.013434932 -0.0468042 0.030147746 -0.045572154 -0.03987158 -0.04598182
0.0076509714 0.03913174 -0.018259712 0.08289001 0.040832795 0.012943506 -0.014487378 0.047099046
0.013351224 0.015878186 0.07007224 0.08549241 -0.070053965 0.081515364 0.04411549 -0.0015406981
-0.025268309 -0.073869094 0.016931832 0.014310047 0.056597628 -0.02038645 -0.0608915 0.0032688975
0.010144092 -0.07108292 0.019853167 0.035593912 0.0585277 -0.08133685 0.05060955 0.084649675
-0.03012446 -0.001575999 -0.050993502 0.008536138 0.055565305 0.04656919 0.033748478 -0.014114112
0.058469377 0.074869685 -0.0025758818 0.05052445 0.06368495 0.064992316 0.07876333 -0.051826198
-0.017278276 -0.024914391 0.04797215 -0.07507605 -0.07203462 -0.0502769 0.06659032 0.031508975
-0.07364321 -0.05999747 0.0152964 -0.06864009 -0.08731023 0.054919846 -0.03667072 0.025413945
0.046708576 -0.024946138 0.064454235 0.0406188 -0.052032255 0.060062848 0.004491091 0.037833072
0.04659032 -0.08771282 -0.079326205 -0.05859534 0.062081017 -0.058646746 0.0011916608 -0.06762924
0.0813432 -0.03052532 -0.010307759 -0.012305953 0.056559317 0.023373492 0.018736295 0.066666834
-0.068493284 -0.038032755 0.032730453 -0.022704214 0.034683086 0.008884601 0.04077562 -0.038821008
-0.012302235 -0.048881292 -0.039504945 -0.07451774 0.036085837 -0.061881922 0.08626687 -0.020707138

bias f4 [64]
00000000: 4062 3f3c 63ef 59bd b01c a4bb 8828 f63c
00000010: db13 a53d c4fa 893c 76e2 503d 1ce1 9ebc
00000020: dc91 983c 7633 4c3d 245b 99bc b735 b33d
00000030: 307b cfbc 5b3f 65bd 75ea 90bd 0a1d 2ebd
00000040: 68c8 783c 6e57 483d 40c8 10bd b632 22bd
00000050: 946f 893c 8f04 80bd f3e9 99bd 4583 a03d
00000060: 3c81 143d d9f6 843d 7000 c3bc 1f7f 18bd
00000070: 5fad 03bd 971c 84bd 8ad5 293d 66c7 88bd
00000080: d690 a7bd b6d4 293d 758e 95bd 2642 383d
00000090: 2e1e 1b3d 7578 a03d 22fe f9bc 0e13 25bd
000000a0: 1235 2b3d 83ee 863d 2a3c 353d a5c2 933d
000000b0: c88c b5bc 4e6b 643d f7b1 53bd 40bf 1cbb
000000c0: ac2f 88bd 983f 7abc 5067 7e3c 28c9 fbbc
000000d0: 06c6 283d 40c8 a9bd 9c05 80bd 6864 8a3c
000000e0: 3039 62bc 36fc 51bd 9679 66bd 8b60 81bd
000000f0: d8d1 de3c a17e 933d 0d1c a43d 68da ad3c
0.0116811395 -0.053206813 -0.0050083026 0.030048624 0.08060428 0.016843207 0.05099722 -0.01939445
0.018624239 0.049853764 -0.018720217 0.0875048 -0.025327295 -0.055968624 -0.07075969 -0.042508163
0.015184499 0.048911504 -0.035347223 -0.039599143 0.016776837 -0.062508695 -0.075153254 0.07837538
0.03625606 0.06492395 -0.02380392 -0.037230607 -0.03214776 -0.064507656 0.041463412 -0.06678657
-0.08181922 0.041462623 -0.07302562 0.04498496 0.03787058 0.07835475 -0.030516688 -0.040301375
0.04179866 0.06588461 0.04424683 0.0721486 -0.022161856 0.055766396 -0.051683392 -0.0023917705
-0.06649718 -0.015273951 0.015527561 -0.030735567 0.041204475 -0.08290148 -0.0625107 0.01689358
-0.01380758 -0.051265918 -0.056268297 -0.06317242 0.02719967 0.07201887 0.08013163 0.021222308

weight f4 [1, 64]
00000000: 6eaa b13d 04fe debd 9629 d4bd 0419 713d
00000010: a09f e1bb ea35 8c3d 9413 be3d 88c7 db3d
00000020: f04d 303c 0c50 5fbd f0db 57bc 4e14 bd3d
00000030: 84b5 a8bd 8e0a d4bd 92ed b4bd 70f9 e63d
00000040: 244f 953d 00d3 30bc 40fe f13b f278 b8bd
00000050: 4ac7 a23d 5832 ffbd e89e d93d 0ed1 a8bd
00000060: 00d2 9ebc 68fc 4e3d 50c7 b6bd 5050 eb3d
00000070: 10c5 983c 8042 8b3c 8caa 9fbd 587b 93bc
00000080: 6039 e6bb 8271 bcbd f86a a73c 4062 053c
00000090: b696 963d 86bb 9dbd e8e0 a63c 625f a5bd
000000a0: 50db 0d3d 908d 1e3d 7498 e63d 108c d8bc
000000b0: f015 17bd 123c 83bd 9eec d13d d07b 9a3c
000000c0: 4852 bdbc 86fb f3bd cc3c 27bd 0049 663b
000000d0: 102a e73c 40d0 6ebd 4407 963d b09d fb3d
000000e0: 1c1d c6bd befb 8dbd 0a6e 92bd a029 543d
000000f0: b805 8f3c 3ada 8c3d bebd c3bd 689d fc3d
0.08675085 -0.108882934 -0.103594944 0.058861747 -0.006885484 0.06846221 0.09281078 0.10731417
0.010760769 -0.054519698 -0.013174996 0.092323884 -0.08237746 -0.10353576 -0.088343754 0.11278045
0.072904855 -0.010792494 0.0073850453 -0.090074435 0.079481676 -0.12460774 0.10626012 -0.08242999
-0.019387245 0.050533682 -0.089247346 0.11489928 0.018648654 0.016999483 -0.07796201 -0.01800315
-0.0070258826 -0.092013374 0.020436749 0.0081411 0.073529646 -0.07701783 0.020370916 -0.080748335
0.03463298 0.038709223 0.11259547 -0.026433975 -0.036886156 -0.06407942 0.10250209 0.018857867
-0.023110524 -0.11913209 -0.040829465 0.0035138726 0.0282183 -0.05830407 0.073256046 0.12285936
-0.09673521 -0.06932782 -0.071498945 0.05179751 0.017458782 0.06877561 -0.09557675 0.1233471
