model.pth (torch, 762088 bytes, 7 tensors)

weight f4 [256, 578]
0.013725042 0.036786724 -0.034418352 0.031978924 -0.0031349882 0.0391518 0.03891999 -0.039752476
-0.03985883 0.0075368397 0.026334744 -0.011737689 0.0033118352 0.033273917 0.008315176 0.010038979
-0.014141224 0.038103532 0.00699047 0.029912237 0.034757074 0.0350559 0.034127597 -0.039030135
-0.025597323 0.023109566 -0.0305224 0.00791182 -0.032294005 -0.036735028 -0.01697543 -0.016646884
-0.016166624 0.018161222 0.016158875 0.031849775 -0.032747213 0.028159399 0.035702776 -0.02510779
-0.03755539 0.03433628 0.034937855 0.03825021 0.03367919 -0.012342025 -0.03501278 0.0013478659
0.03377411 0.036012907 0.02202199 -0.024304193 0.010728657 0.0063274056 -0.002645418 -0.009374827
-0.009753648 0.004361782 0.040851768 -0.037342876 0.03256585 -0.004157044 0.019006375 -0.012013484
-0.0010954626 0.031732608 0.026072543 -0.020811232 0.035895597 -0.026713517 0.038710106 0.024852786
0.013370294 0.0067183077 -0.0046174303 0.0003379546 -0.040133864 0.023332473 0.013213407 0.00021595135
-0.008176986 0.024953116 -0.019097267 -0.027263474 0.040152136 0.008666661 0.0077687837 0.018636018
-0.036410585 -0.039860282 0.023253959 -0.021390205 0.03585917 0.035685148 -0.03786714 -0.0034967586
0.035866845 0.018358342 0.033921864 -0.02550523 -0.017014097 -0.009695388 0.007900704 -0.021708474
0.039205004 0.012438942 -0.011092534 0.014229003 -0.037665606 -0.040806573 0.040031757 0.002903793
-0.013854982 -0.03324168 -0.0004961677 -0.027810147 -0.031520553 0.011969015 -0.01829487 0.033580247
0.010461874 0.036580388 -0.019092279 -0.0053380653 -0.018560193 0.033055935 -0.027350824 0.0009826459
-0.020202076 -0.03201937 0.007812608 0.030977074 -0.034770515 0.012025576 0.015963025 -0.0034448095
0.0368368 0.034425717 0.006855823 -0.013165658 -0.029694512 0.009101249 0.039541263 -0.018183127
0.012484156 0.02432571 -0.01098815 -0.034956403 0.02955987 0.0016213804 0.035003807 0.01733318
0.0385045 -1.9967556e-06 0.015598495 0.0030434988 -0.030885428 -0.02671611 0.03498454 -0.03987241
-0.004359495 -0.037289057 0.009803303 0.020472005 0.00843925 -0.03357265 0.039601486 0.003605377
0.012566809 -0.0065851286 0.011455599 -0.035976812 0.013539933 -0.005319182 -0.009123091 6.613508e-05
0.036857877 0.021508258 -0.031206677 -0.008856621 -0.030735578 0.040246468 0.026813451 0.010338899
0.035251673 -0.016015327 -0.03937666 0.001775831 0.017225165 0.02787863 -0.029550597 0.03821634
0.030678455 0.018063184 0.029926281 -0.0358918 -0.012316043 -0.0033059046 0.03849398 0.023405198
0.03552295 -0.014169443 -0.009647142 -0.01224836 0.021158222 0.04050013 0.0025712065 0.022660922
-0.030408323 -0.036485147 0.0005071424 -0.023533292 0.008307762 0.025419604 0.0023714006 -0.007246934
0.02044553 -0.029030178 0.029045712 -0.018502833 -0.011848159 0.028161127 0.017114978 0.023624528
-0.01932682 -0.0038911663 0.034836378 0.008456387 0.021664906 -0.03885632 -0.002053421 0.008902341
0.009404469 -0.012829654 -0.0040329583 0.0045188516 0.029857498 0.03346358 0.028282378 -0.0026164018
0.0002939254 0.02263702 0.037166793 0.01283161 0.024763513 -0.038070947 -0.009668805 -0.004716832
-0.020553961 0.031250644 0.010048095 0.007877979 -0.011509035 -0.015992325 -0.019515285 -0.025053099
00000000: 00df 603c adad 163d 42fa 0cbd 55fc 023d
00000010: 6074 4dbb a35d 203d 916a 1f3d 7ed3 22bd
00000020: 0343 23bd 98f7 f63b f6bb d73c 704f 40bc
00000030: 600b 593b 3b4a 083d 603c 083c 887a 243c
00000040: 98b0 67bc 7312 1c3d 5010 e53b 820a f53c
00000050: 6f5d 0e3d c796 0f3d 61c9 0b3d 10de 1fbd
00000060: 7ab1 d1bc 4650 bd3c 1d0a fabc 94a0 013c
00000070: b846 04bd 7877 16bd 0f10 8bbc 0c5f 88bc
00000080: de6f 84bc d8c6 943c 9e5f 843c e974 023d
00000090: f121 06bd 8aae e63c 133d 123d daae cdbc
000000a0: aed3 19bd 33a4 0c3d ff1a 0f3d 41ac 1c3d
000000b0: 31f3 093d 3436 4abc 9069 0fbd e0aa b03a
000000c0: b956 0a3d 4582 133d 7667 b43c 9619 c7bc
000000d0: 40c7 2f3c 2056 cf3b c05e 2dbb e098 19bc
000000e0: c4cd 1fbc 48ed 8e3b 2f54 273d d8f4 18bd
000000f0: c563 053d d037 88bb 42b3 9b3c 34d4 44bc
00000100: a095 8fba 0dfa 013d 1696 d53c 517c aabc
00000110: 4307 133d 4ed6 dabc 7d8e 1e3d 1298 cb3c
00000120: 140f 5b3c 4025 dc3b d04d 97bb 802f b139
00000130: 6863 24bd be23 bf3c 0c7d 583c 0071 6239
00000140: c4f8 05bc 7a6a cc3c df71 9cbc a657 dfbc
00000150: 9176 243d 9cfe 0d3c 4891 fe3b 90aa 983c
00000160: 4423 15bd 8944 23bd 167f be3c 833a afbc
00000170: 11e1 123d 972a 123d 931a 1bbd e029 65bb
00000180: 1de9 123d 3c64 963c a7f1 0a3d 58f0 d0bc
00000190: 2661 8bbc 68d9 1ebc f471 013c f8d5 b1bc
000001a0: 6d95 203d b4cc 4b3c 76bd 35bc c420 693c
000001b0: 4047 1abd cb24 27bd 57f8 233d 904d 3e3b
000001c0: 0200 63bc 6e28 08bd 4011 02ba 1bd2 e3bc
000001d0: b21b 01bd b019 443c 20df 95bc 718b 093d
000001e0: 4868 2b3c 51d5 153d 6967 9cbc f0ea aebb
000001f0: 8c0b 98bc a965 073d d60e e0bc 20cc 803a
00000200: d37e a5bc be26 03bd 7400 003c a2c3 fd3c
00000210: 876b 0ebd ec06 453c e4c4 823c 50c2 61bb
00000220: 2fe2 163d fb01 0d3d d0a6 e03b c6b4 57bc
00000230: e841 f3bc 681d 153c 05f6 213d c8f4 94bc
00000240: 588a 4c3c b646 c73c a407 34bc 722e 0fbd
00000250: 8a27 f23c 8084 d43a 2760 0f3d 50fe 8d3c
00000260: e5b6 1d3d 0000 06b6 d490 7f3c 7075 473b
00000270: 7003 fdbc bedb dabc f34b 0f3d 4151 23bd
00000280: 18da 8ebb 69bc 18bd 089e 203c e8b4 a73c
00000290: c844 0a3c 7a83 09bd 2b35 223d 3048 6c3b
000002a0: 04e5 4d3c 10c8 d7bb 44b0 3b3c 6c5c 13bd
000002b0: 98d6 5d3c 884c aebb 0479 15bc 00b2 8a38
000002c0: 49f8 163d 1632 b03c 25a5 ffbc 5c1b 11bc
000002d0: 2ec9 fbbc 7bd9 243d e2a7 db3c 7c64 293c
000002e0: 0f64 103d 9332 83bc 6c49 21bd 00c3 e83a
000002f0: ca1b 8d3c ba61 e43c 1814 f2bc bd88 1c3d
00000300: 6251 fb3c 3ef9 933c f627 f53c 4803 13bd
00000310: 3ac9 49bc e0a7 58bb ddab 1d3d 42bc bf3c
00000320: 8380 113d f426 68bc 0c0f 1ebc 58ad 48bc
00000330: 0254 ad3c 77e3 253d b081 283b 66a3 b93c
00000340: e01a f9bc 7371 15bd c0f1 043a e4c8 c0bc
00000350: 481d 083c c63c d03c 8069 1b3b b077 edbb
00000360: 627d a73c b2d0 edbc 46f1 ed3c 4193 97bc
00000370: c81e 42bc 2ab2 e63c b634 8c3c 3a88 c13c
00000380: 4753 9ebc f002 7fbb 97b0 0e3d a88c 0a3c
00000390: 9a7a b13c ce27 1fbd b092 06bb 20db 113c
000003a0: 3415 1a3c 7833 52bc e826 84bb e012 943b
000003b0: b697 f43c 1b11 093d 72b0 e73c f077 2bbb
000003c0: 001a 9a39 4671 b93c 353c 183d ac3b 523c
000003d0: dadc ca3c 48f0 1bbd e869 1ebc a88f 9abb
000003e0: c860 a8bc ad00 003d c4a0 243c a412 013c
000003f0: 6490 3cbc 5602 83bc 85de 9fbc 283c cdbc

bias f4 [256]
0.011103146 0.034223054 -0.0189573 0.008059047 0.006295372 -0.035785485 0.03048778 0.031375427
-0.040309906 -0.034824044 0.018884104 0.01500354 -0.0012361407 0.022317778 0.015974443 0.029218141
-0.01972409 -0.031845428 -0.015542047 -0.031195262 -0.033774734 0.013716135 0.0074518025 -0.016289668
0.004411962 -0.009069584 -0.032923076 0.0025065467 0.029657837 -0.032045327 0.037195537 -0.0069205724
0.037529964 0.029015865 0.025751483 0.031260613 -0.011147728 -0.035411697 0.016953204 -0.03954543
-0.02792034 0.040751766 0.0006897114 0.020413931 0.008624997 -0.003666032 -0.025565138 0.03561612
0.02074816 -0.008500949 0.024983186 0.035034034 -0.039491177 0.03601029 0.020393599 -0.016709639
0.003605131 0.018246967 0.026956279 -0.03909509 -0.012430653 0.015751518 0.016272806 -0.016916828
-0.019227823 -0.036643874 0.0033734888 0.02874748 0.037534196 0.0035473108 0.005220566 -0.029151201
0.0001312308 0.026473355 0.010905784 -0.040611636 -0.04000108 0.03513537 -0.012917776 -0.0068713315
0.0097392425 -0.027951602 -0.01292737 -0.027554791 -0.03834997 -0.040078245 0.0027487837 0.01763586
0.0037035719 -0.018456874 0.01652686 0.03166535 -0.018141476 0.034185905 0.02686834 0.027614895
0.009723436 -0.0024069808 0.0030231774 -0.03630217 -0.024868747 0.03390978 0.004832521 -0.035118926
0.009461105 -0.039481487 0.025959838 -0.00958515 0.014995098 -0.03491226 0.029844712 -0.025588626
-0.014157761 0.009047877 0.0112813115 -0.0032834858 -0.024811309 -0.013335977 -0.0047800764 0.037859973
0.017526995 -0.015870709 0.007329643 -0.039276678 0.010890197 0.022397835 -0.022977648 0.029124182
-0.041423112 0.001957558 -0.0018059313 -0.03708338 -0.009556431 0.029565085 -0.016568238 0.027849507
0.03612725 0.039991286 -0.038730193 -0.0056220293 0.039893795 0.023245487 0.0151496045 -0.02158532
0.018298034 0.035749163 0.016420774 -0.04139631 -0.023030614 -0.028988425 -0.03757619 -0.0069526695
0.021117013 0.032231588 0.034263115 -0.04095038 0.03427398 0.0039041154 0.023697343 -0.017210532
-0.020315351 -0.026189025 -0.03631257 0.035140652 -0.02250856 -0.005311381 -0.0064169727 0.029056903
0.0009342469 0.028448675 0.009974644 0.028147105 -0.004283197 0.008161649 -0.018968863 0.027176034
0.006186936 -0.032431155 0.01644206 0.01660322 0.0115445 -0.035442326 -0.000722073 0.038778912
0.008582938 0.0051288195 0.015408296 0.02184927 0.022164214 -0.017044686 0.020682093 -0.03987202
-0.01105844 -0.0025755055 0.0068200007 -0.017101783 0.03805345 0.034607846 -0.02551046 -0.029063806
-0.03561253 -0.021192605 -0.020841869 0.0009711832 -0.034787048 0.010991197 -0.018821519 0.01453688
-0.034875557 0.00028718263 0.011119261 0.03134008 0.007961035 0.0027128495 0.0076167583 -0.0350755
-0.035655387 -0.0018218234 -0.010170244 0.033481795 -0.02238565 0.0056709684 -0.0031236522 0.030608054
0.02700444 0.03531261 -0.007672079 0.011135947 -0.003427472 -0.00396239 -0.0051943474 -0.032787874
0.020442363 0.028864596 -0.031535402 0.008911505 -0.037580132 0.016967796 -0.019360423 -0.007011004
0.03906509 0.010344569 -0.041167337 0.0144874975 0.028119233 -0.023088142 0.023199242 0.0114825815
-0.0034721568 -0.040063698 0.01749964 0.037873786 -0.0036902577 0.020615984 -0.03552693 -0.013068801
00000000: f8e9 353c 792d 0c3d 574c 9bbc 180a 043c
00000010: 6849 ce3b cd93 12bd 82c1 f93c 8583 003d
00000020: 001c 25bd a8a3 0ebd d6b2 9a3c 68d1 753c
00000030: 0006 a2ba c6d3 b63c d6dc 823c e25a ef3c
00000040: 6a94 a1bc 5a70 02bd 12a4 7ebc 358d ffbc
00000050: 6057 0abd a4b9 603c 402e f43b e971 85bc
00000060: 3892 903b 9898 14bc 59da 06bd e044 243b
00000070: fef4 f23c f641 03bd 595a 183d f8c5 e2bb
00000080: 05b9 193d aeb2 ed3c c6f4 d23c 210b 003d
00000090: f6a4 36bc db0b 11bd 72e1 8a3c 64fa 21bd
000000a0: 32b9 e4bc 53eb 263d c0cd 343a 1e3b a73c
000000b0: dc4f 0d3c d041 70bb fb6d d1bc 35e2 113d
000000c0: 0cf8 a93c 9047 0bbc 8aa9 cc3c d97f 0f3d
000000d0: 80c1 21bd 877f 133d 7a10 a73c a7e2 88bc
000000e0: 1044 6c3b aa7a 953c 6ad3 dc3c 2c22 20bd
000000f0: f0a9 4bbc 5409 813c 8c4e 853c 2995 8abc
00000100: ab83 9dbc e317 16bd c015 5d3b d67f eb3c
00000110: 75bd 193d 007a 683b 4811 ab3b 80ce eebc
00000120: 009b 0939 a6de d83c 2cae 323c 6358 26bd
00000130: 2cd8 23bd 1bea 0f3d 14a5 53bc e828 e1bb
00000140: 5891 1f3c c2fa e4bc 52cd 53bc 96ba e1bc
00000150: dc14 1dbd 1629 24bd f024 343b 1479 903c
00000160: a0b7 723b df32 97bc 5663 873c 87b3 013d
00000170: 6f9d 94bc 8506 0c3d fe1a dc3c a238 e23c
00000180: 0c4f 1f3c 70be 1dbb 8020 463b 96b1 14bd
00000190: 8bb9 cbbc fbe4 0a3d 205a 9e3b ddd8 0fbd
000001a0: c002 1b3c 57b7 21bd baa9 d43c 080b 1dbc
000001b0: 00ae 753c 2800 0fbd e67c f43c 3d9f d1bc
000001c0: f4f5 67bc 8c3d 143c 40d5 383c c02f 57bb
000001d0: 1641 cbbc 247f 5abc 30a2 9cbb 0f13 1b3d
000001e0: c694 8f3c 4a03 82bc 802d f03b 95e0 20bd
000001f0: cc6c 323c aa7b b73c 9f3b bcbc d695 ee3c
00000200: 48ab 29bd 604a 003b 00b5 ecba bee4 17bd
00000210: 9492 1cbc 7a32 f23c 1dba 87bc a624 e43c
00000220: 2bfa 133d e7cd 233d 8da3 1ebd 0039 b8bb
00000230: ad67 233d 526d be3c 0c36 783c b2d3 b0bc
00000240: c2e5 953c b76d 123d dc84 863c 2d8f 29bd
00000250: b3aa bcbc 2279 edbc 7ee9 19bd 38d3 e3bb
00000260: 96fd ac3c 4505 043d 7b57 0c3d 96bb 27bd
00000270: df62 0c3d 30dc 7f3b ee20 c23c 1afd 8cbc
00000280: 616c a6bc 5e8a d6bc 7dbc 14bd a5ef 0f3d
00000290: df63 b8bc 180b aebb 7845 d2bb be08 ee3c
000002a0: 40e8 743a 320d e93c b06c 233c c294 e63c
000002b0: 105a 8cbb 70b8 053c 9764 9bbc 46a0 de3c
000002c0: c8bb ca3b 88d6 04bd 80b1 863c 7a03 883c
000002d0: 2425 3d3c f92b 11bd 8049 3dba a3d6 1e3d
000002e0: 749f 0c3c a80f a83b 1473 7c3c 3efd b23c
000002f0: ba91 b53c 4ca1 8bbc 7e6d a93c d850 23bd
00000300: 762e 35bc d0c9 28bb 507a df3b 0a19 8cbc
00000310: efdd 1b3d f5c0 0d3d 50fb d0bc 3817 eebc
00000320: 72de 11bd 1d9c adbc 91bc aabc 0097 7e3a
00000330: dd7c 0ebd 6c14 343c 962f 9abc 182c 6e3c
00000340: acd9 0ebd 0091 9639 902d 363c 755e 003d
00000350: 006f 023c 10ca 313b 0096 f93b 54ab 0fbd
00000360: 620b 12bd 40ca eeba 18a1 26bc 3524 093d
00000370: 1c62 b7bc 88d3 b93b 30b6 4cbb bebd fa3c
00000380: 6a38 dd3c f5a3 103d 1066 fbbb 8c73 363c
00000390: 709f 60bb f0d6 81bb 5835 aabb 944c 06bd
000003a0: be76 a73c 7275 ec3c 442b 01bd 9001 123c
000003b0: a0ed 19bd 0c00 8b3c c099 9ebc 90bc e5bb
000003c0: b702 203d 447c 293c 159f 28bd f85c 6d3c
000003d0: 4e5a e63c 5823 bdbc 560c be3c 7021 3c3c
000003e0: 208d 63bb d519 24bd 685b 8f3c 8b21 1b3d
000003f0: 40d8 71bb dae2 a83c b084 11bd 861e 56bc

weight f4 [128, 256]
0.034788623 -0.055595323 0.05606123 -0.05762291 0.018081397 -0.051602602 0.015673757 0.028230086
0.022527002 0.019786105 -0.023283772 -0.0017651692 -0.0188547 -0.054860927 0.051165283 -0.042442508
-0.034439996 -0.0011192262 0.023393132 0.012666948 0.01198744 -0.012170911 -0.014807209 0.0316988
-0.034600772 -0.027699195 -0.050913297 -0.017830685 0.019885518 -0.007983051 0.036025748 0.028177202
0.054323636 0.030315354 0.057262123 0.05065562 -0.058472 -0.037514277 0.047298 -0.023735479
0.051288262 0.04682406 -0.0544272 -0.045976914 -0.039789177 0.016293623 0.010283075 0.056524426
-0.016223378 -0.053560898 0.054439887 0.026475348 -0.008436136 0.0541673 0.018243201 -0.02529741
0.0007081628 -0.060451195 -0.056990847 -0.055362515 0.02628874 -0.047950573 -0.06064476 0.05565136
0.04162678 -0.04959604 0.030728564 0.024856083 0.039400533 -0.05078107 -0.045901217 0.03721378
-0.022759363 -0.052638315 0.0050472915 0.055540323 0.046551578 -0.04935211 0.03610652 0.03818447
-0.033578448 0.04172665 0.027444579 0.02191975 -0.018701635 0.037425518 0.033852883 -0.04997629
0.013232991 -0.024995036 -7.9892576e-05 0.024707183 0.058466554 -0.037744023 0.05743108 0.056225494
0.052266747 0.027971044 0.035580397 0.052340418 -0.008038968 0.043180615 0.055169575 0.006513968
0.04790142 -0.02116675 0.02612383 -0.05783516 -0.035892136 -0.028223328 0.0054297447 0.016633444
0.042838357 -0.05690568 0.021984749 -0.005034119 0.004583925 0.025831506 0.046918757 0.03613309
0.017512083 0.02105242 0.011787862 0.010156132 -0.058183096 -0.05532673 0.061600305 -0.037949026
0.007484488 -0.008175105 0.06020969 0.05207128 -0.024836995 0.020177007 0.011316061 -0.05853474
-0.008736007 -0.0548931 0.031584904 -0.049782895 0.052231394 -0.0006863773 -0.0012789592 -0.054210007
-0.015605696 0.034824796 -0.04920853 0.009170853 0.03425464 0.04490818 -0.023997635 -0.032107644
0.021300912 -0.0364284 0.029557161 -0.00033147633 -0.011598222 0.0027557164 -0.036180645 0.02849415
0.04571847 0.011326805 -0.0137669 -0.0014031157 0.0069318265 -0.035059124 -0.014253028 0.036985487
0.008847646 0.01927691 -0.05951918 0.02291704 0.049388595 -0.029054165 0.003850177 -0.051106296
0.002178952 -0.058269516 -0.036303245 -0.050188377 0.013897628 0.019389838 -0.0002334863 0.03318865
0.023026176 0.04029409 -0.021881282 -0.0157931 0.018825166 -0.0049165264 -0.058276795 0.016476303
-0.0135559365 -0.015075155 -0.04397387 0.022184066 0.01351843 -0.060908727 -0.04713449 0.02716773
0.0025406927 0.053179413 0.052282788 0.06091366 -0.045604043 0.015952125 0.03348469 -0.03234365
0.024462715 -0.04890295 0.010889545 0.04024815 -0.006112136 0.05318279 -0.03266248 0.047853217
-0.057880335 -0.05660843 -0.035599224 -0.053659163 0.031186685 -0.021201171 0.043336533 0.01147382
0.009911194 0.02324842 0.013142914 0.011161223 -0.051364124 -0.016586818 0.048070036 -0.01128649
-0.049720116 -0.032121606 -0.037859783 0.0014227405 0.051078893 0.050652586 0.049169034 -0.019222856
0.013085902 0.016029805 0.058224708 -0.01925625 -0.050624803 -0.025873609 -0.048081987 0.047786206
0.02072385 0.04017248 0.0038107708 -0.03412594 0.04209949 0.06249679 -0.0313353 -0.044582613
00000000: 847e 0e3d ecb7 63bd 76a0 653d 0006 6cbd
00000010: 701f 943c 405d 53bd 4066 803c c842 e73c
00000020: 8c8a b83c 7816 a23c 9cbd bebc 405d e7ba
00000030: 2c75 9abc dab5 60bd b092 513d 32d8 2dbd
00000040: f410 0dbd 00b3 92ba f4a2 bf3c 0889 4f3c
00000050: f866 443c 8068 47bc f099 72bc 9ad6 013d
00000060: 8ab9 0dbd 6ce9 e2bc 768a 50bd a811 92bc
00000070: f4e6 a23c 58cb 02bc bc8f 133d e0d3 e63c
00000080: 7682 5e3d e857 f83c b08b 6a3d 447c 4f3d
00000090: 5680 6fbd 92a8 19bd 8cbb 413d e870 c2bc
000000a0: a413 523d 96ca 3f3d 0eef 5ebd 4a52 3cbd
000000b0: faf9 22bd 347a 853c 587a 283c 2886 673d
000000c0: e4e6 84bc ac62 5bbd 5cfc 5e3d d4e2 d83c
000000d0: b837 0abc 88de 5d3d c472 953c 843c cfbc
000000e0: 00a4 393a ac9b 77bd 3c6f 69bd cec3 62bd
000000f0: 7c5b d73c d267 44bd a466 78bd aef2 633d
00000100: d880 2a3d 3825 4bbd 78ba fb3c fc9e cb3c
00000110: 7462 213d d0ff 4fbd ea02 3cbd 7a6d 183d
00000120: d871 babc 469b 57bd c063 a53b 407e 633d
00000130: deac 3e3d 7025 4abd 6ee4 133d 5267 1c3d
00000140: 8e89 09bd 90e9 2a3d 74d3 e03c 0c91 b33c
00000150: 2c34 99bc 804b 193d 52a9 0a3d f0b3 4cbd
00000160: 30cf 583c 64c2 ccbc 008c a7b8 b866 ca3c
00000170: a07a 6f3d 7a99 1abd da3c 6b3d b44c 663d
00000180: a815 563d 8823 e53c c0bc 113d e862 563d
00000190: e0b5 03bc 28de 303d 7ef9 613d 2073 d53b
000001a0: 4834 443d e465 adbc a401 d63c 90e4 6cbd
000001b0: a203 13bd 9c34 e7bc 00ec b13b dc42 883c
000001c0: 4677 2f3d ee15 69bd 5c19 b43c 40f5 a4bb
000001d0: c034 963b 989c d33c e22d 403d 4a00 143d
000001e0: 8075 8f3c 2076 ac3c e021 413c e865 263c
000001f0: 6651 6ebd 489e 62bd 9a50 7c3d 7070 1bbd
00000200: 7040 f53b e0f0 05bc 709e 763d b248 553d
00000210: f476 cbbc 404a a53c 0067 393c 20c2 6fbd
00000220: 7821 0fbc 96d7 60bd 2c5f 013d 26e9 4bbd
00000230: 96f0 553d 00ee 33ba c0a2 a7ba 500b 5ebd
00000240: 08af 7fbc 72a4 0e3d e28e 49bd 5841 163c
00000250: 984e 0c3d a4f1 373d b096 c4bc 4e83 03bd
00000260: 407f ae3c f235 15bd dc21 f23c 00ca adb9
00000270: 7806 3ebc 4099 343b 2832 14bd 906c e93c
00000280: 4a43 3b3d 1094 393c 908e 61bc c0e8 b7ba
00000290: 6024 e33b 289a 0fbd 8885 69bc 187e 173d
000002a0: b8f5 103c 9cea 9d3c 62ca 73bd 84bc bb3c
000002b0: b24b 4a3d 0003 eebc 4053 7c3b d654 51bd
000002c0: c0cc 0e3b 04ac 6ebd b6b2 14bd 5492 4dbd
000002d0: e0b2 633c 70d7 9e3c 00d4 74b9 d2f0 073d
000002e0: 64a1 bc3c 6a0b 253d 6040 b3bc 8860 81bc
000002f0: 3c37 9a3c d01a a1bb a6b3 6ebd 50f9 863c
00000300: b819 5ebc c8fd 76bc f21d 34bd 5cbb b53c
00000310: 687c 5d3c 6e7b 79bd 1810 41bd dc8e de3c
00000320: c081 263b a8d2 593d 7a26 563d 9a80 793d
00000330: 4ecb 3abd 08ae 823c 3e27 093d c67a 04bd
00000340: 0866 c83c 764e 48bd 106a 323c 3edb 243d
00000350: 5048 c8bb 32d6 593d 18c9 05bd bc01 443d
00000360: ee13 6dbd 3ede 67bd 7ed0 11bd b6c9 5bbd
00000370: 387b ff3c 14ae adbc a681 313d b0fc 3b3c
00000380: 9062 223c 7873 be3c 6055 573c 90dd 363c
00000390: 3063 52bd 14e1 87bc 16e5 443d f8ea 38bc
000003a0: 52a7 4bbd f291 03bd dc12 1bbd 407b ba3a
000003b0: 1a38 513d 1679 4f3d 7865 493d 4079 9dbc
000003c0: 4066 563c f050 833c 087d 6e3d 48bf 9dbc
000003d0: f45b 4fbd e4f4 d3bc 9ef1 44bd 78bb 433d
000003e0: 10c5 a93c e68b 243d 20be 793b a4c7 0bbd
000003f0: 8470 2c3d a2fc 7f3d 7259 00bd 429c 36bd

bias f4 [128]
0.022918388 -0.012010947 0.036033653 0.05964619 -0.020502128 0.017160654 -0.05344978 -0.037173413
0.008361526 0.053428583 -0.009640217 -0.053085975 0.039934516 -0.022818469 0.05485069 -0.037275016
0.009986177 -0.009433806 -0.0077872425 -0.01788047 -0.04375799 -0.058374703 -0.042230837 0.004350163
-0.048333913 0.028347492 -0.032122105 0.0050167292 -0.011164442 -0.056226134 0.051860623 -0.04701569
0.04494822 0.04722304 -0.052706733 -0.036472157 0.040559478 0.03367158 -0.0007884875 -0.019214228
-0.0253499 -0.04668331 0.027065925 -0.044259712 -0.015582882 -0.000120066106 0.05446437 0.037556604
0.03187985 0.059319355 0.022527292 0.014002636 0.038962997 -0.004974678 -0.039809264 0.043627724
-0.055201225 -0.0014601648 -0.023504786 -0.061373428 -0.023048587 -0.044536717 -0.038471036 -0.05476491
0.0035501495 -0.034051985 -0.029294513 -0.02951032 -0.054638416 -0.048407525 0.00018706173 0.00052918494
0.0018646047 -0.04320842 -0.042081475 -0.049994424 0.022592723 -0.04779491 -0.0274605 -0.059839785
-0.026630625 0.061071962 0.039782427 0.00070842355 -0.017807454 -0.052428924 0.018800877 -0.048082188
0.010847487 0.034859993 0.047676638 0.050254315 -0.05713501 -0.035956547 -0.030915298 -0.056215495
0.013916209 -0.042122744 0.048986986 -0.039630547 -0.00077715516 -0.01105424 -0.0499198 -0.01502452
0.009320028 -0.026720941 -0.02944459 0.014526613 0.04580964 -0.051682644 0.05830387 -0.02275794
-0.008867696 0.026894458 0.021259718 0.05405213 0.0478459 -0.043157987 0.05724436 -0.030279197
-0.022185571 -0.030006453 -0.0397228 -0.05340135 0.0151100755 -0.02197852 -0.0014391467 -0.04296998
00000000: 58bf bb3c 90c9 44bc 0698 133d 904f 743d
00000010: 14f4 a7bc 8094 8c3c 28ee 5abd 2643 18bd
00000020: c8fe 083c eed7 5a3d 00f2 1dbc ae70 59bd
00000030: 6092 233d cced babc 1eab 603d b0ad 18bd
00000040: 109d 233c 4090 1abc 202c ffbb 107a 92bc
00000050: 943b 33bd 501a 6fbd 3efa 2cbd d08b 8e3b
00000060: c8f9 45bd 0039 e83c 7892 03bd 6063 a43b
00000070: 10eb 36bc 604d 66bd ce6b 543d 8693 40bd
00000080: a01b 383d f26c 413d 04e3 57bd d463 15bd
00000090: b221 263d 36eb 093d 80b2 4eba 2867 9dbc
000000a0: 98aa cfbc 0037 3fbd 5cb9 dd3c ac49 35bd
000000b0: 584f 7fbc 00cc fbb8 0816 5f3d f4d4 193d
000000c0: 7294 023d daf8 723d 288b b83c 506b 653c
000000d0: aa97 1f3d a002 a3bb 0a0f 23bd fcb2 323d
000000e0: ae1a 62bd 0063 bfba 1c8d c0bc b462 7bbd
000000f0: 64d0 bcbc 226c 36bd ce93 1dbd 2c51 60bd
00000100: a0a9 683b 187a 0bbd 0cfb efbc a0bf f1bc
00000110: 88cc 5fbd f846 46bd 0026 4439 00b9 0a3a
00000120: c065 f43a 50fb 30bd a05d 2cbd f4c6 4cbd
00000130: 6014 b93c 98c4 43bd d8f4 e0bc 901a 75bd
00000140: 7828 dabc 9826 7a3d e6f2 223d 80b5 393a
00000150: f0e0 91bc b6bf 56bd 4c04 9a3c d4f1 44bd
00000160: a8b9 313c 5ac9 0e3d 9448 433d 78d7 4d3d
00000170: 6606 6abd 2c47 13bd 1442 fdbc 3842 66bd
00000180: d000 643c e688 2cbd 94a6 483d a453 22bd
00000190: 00ba 4bba d81c 35bc b478 4cbd 6829 76bc
000001a0: 08b3 183c e0e5 dabc c835 f1bc 0801 6e3c
000001b0: e4a2 3b3d 2eb1 53bd 0ad0 6e3d dc6e babc
000001c0: d049 11bc c451 dc3c dc28 ae3c c465 5d3d
000001d0: 10fa 433d 6ec6 30bd 1079 6a3d 140c f8bc
000001e0: 84be b5bc 18d0 f5bc 60b4 22bd 60bb 5abd
000001f0: 4090 773c 4c0c b4bc c0a1 bcba 4a01 30bd

weight f4 [64, 128]
-0.055080757 -0.057456277 0.020642206 -0.03540138 0.07049195 0.049079098 0.047418617 -0.07361828
0.03944447 0.084332295 0.033889078 0.02853541 0.08807733 0.07467034 -0.035244342 0.083513774
-0.08806137 0.08684675 -0.08617196 0.018756367 0.041299008 -0.06810467 0.0073236153 -0.049067803
0.03178729 0.073739804 0.017657109 -0.046902616 0.08139386 0.07418839 -0.036900323 0.083592616
0.07630158 0.086724855 0.024723805 0.05643379 -0.049490567 -0.07383585 -0.0606276 -0.005735092
-0.039512184 -0.03742087 0.012598991 0.08019065 -0.0201625 0.06377987 -0.02983981 0.07666493
0.03586956 -0.020987764 -0.08239639 -0.0738645 -0.0077498257 -0.08327917 0.043979503 0.009487793
-0.0481794 0.032022014 -0.046286784 0.014804266 0.045230635 -0.051335692 0.029352464 0.07680402
0.06250847 -0.07948004 0.021400526 -0.045005403 0.054366656 -0.0076359883 -0.07295288 -0.021495596
0.08497629 0.019226477 0.0047075152 -0.066184826 -0.08249047 -0.038092405 0.047271438 0.031588048
-0.014013648 -0.06355073 -0.036008295 0.060121678 -0.046247672 0.048673443 0.080441944 -0.06053578
0.066827126 -0.0019229576 -0.055152405 0.065939225 0.06816796 -0.026030894 -0.005670227 -0.052339282
0.07208831 -0.05838661 0.050191127 -0.026104186 0.032555223 0.050706007 0.007544957 0.011118315
-0.027419705 -0.083153084 0.021353476 0.012701072 -0.04001856 0.0621377 0.0834877 -0.022828206
-0.06324616 -0.007859491 0.0331833 0.052272998 0.05593642 0.07183152 0.015775196 -0.07575992
0.084006615 0.055783175 -0.018219061 0.046671607 0.073409386 0.07937006 0.0005880743 0.020809688
-0.025520064 0.040717117 0.046189018 0.05700188 0.029640004 0.05175505 0.055821054 -0.06593746
0.040691815 -0.07007771 0.0068352297 0.036214627 -0.011016041 0.0821655 0.028225765 -0.04182045
-0.06814079 -0.03946695 0.061143167 -0.08118486 0.018023148 -0.037340812 0.06637085 0.058907546
-0.055064414 -0.031908356 0.031615645 0.01945822 0.034354635 0.047775485 0.038232602 0.014578342
-0.046137627 -0.029136792 0.031674206 -0.063712284 0.05502499 -0.082072854 -0.06416069 -0.032886185
-0.0610411 0.076777674 -0.044263788 -0.015651822 0.01142244 0.017116249 0.05825419 0.04464952
0.086686544 -0.07853204 0.02352149 0.048328213 -0.054096397 -0.056793056 -0.07507604 0.0233308
0.030875675 -0.06069971 -0.065108225 -0.044199683 -0.07736314 0.027104571 0.022069134 -0.042357318
-0.050265007 -0.081051454 0.011338323 -0.005255893 -0.04321563 -0.024748527 0.027555048 0.06781439
-0.0032030866 -0.00038670748 -0.06555068 0.06895832 -0.067191765 0.020223722 -0.064854376 -0.03284659
0.031581916 -0.021369688 0.06213937 0.045493357 -0.030107949 0.0108907 -0.0147434175 0.015216172
0.057104193 -0.023221701 0.05865396 0.0018442273 -0.028956898 -0.04264536 0.01948607 -0.08566802
0.064928554 -0.053509027 0.060723655 -0.021636665 -0.06619583 0.008302942 -0.077525884 -0.04892732
0.025882624 -0.059319675 0.044405274 -0.059879743 0.0492255 -0.0492468 -0.08130428 -0.047337454
0.052416988 -0.020164452 -0.03651683 -0.00045936555 -0.050861415 0.023073554 0.06898702 0.046261124
0.04582811 0.048202954 0.058798112 -0.034727506 0.055811606 -0.011887245 -0.06832656 0.085416414
00000000: 5c9c 61bd 4657 6bbd d819 a93c 0a01 11bd
00000010: 155e 903d 2a07 493d 063a 423d 2ec5 96bd
00000020: 8690 213d 69b6 ac3d 46cf 0a3d 18c3 e93c
00000030: e361 b43d c3ec 983d 5f5c 10bd 4509 ab3d
00000040: 8559 b4bd b5dc b13d ed7a b0bd f4a6 993c
00000050: 2629 293d 767a 8bbd f0fa ef3b 52fb 48bd
00000060: 6433 023d e504 973d a4a5 903c f51c 40bd
00000070: d3b1 a63d 15f0 973d cb24 17bd 9b32 ab3d
00000080: 0144 9c3d cd9c b13d 9489 ca3c 1e27 673d
00000090: 9fb6 4abd 4037 97bd a554 78bd 70ed bbbb
000000a0: 87d7 21bd a046 19bd 006c 4e3c ff3a a43d
000000b0: d42b a5bc 059f 823d 9e72 f4bc 8102 9d3d
000000c0: f6eb 123d 88ee abbc 70bf a8bd 4546 97bd
000000d0: 40f2 fdbb 458e aabd da23 343d b072 1b3c
000000e0: c357 45bd 8429 033d 3697 3dbd 988d 723c
000000f0: c243 393d 6045 52bd 9474 f03c 6d4b 9d3d
00000100: 7104 803d 6ec6 a2bd 2850 af3c 9657 38bd
00000110: 92af 5e3d 5037 fabb 5268 95bd 8817 b0bc
00000120: 0d08 ae3d d880 9d3c 8041 9a3b e98b 87bd
00000130: c3f0 a8bd c806 1cbd b29f 413d 7862 013d
00000140: 8099 65bc e326 82bd 6f7d 13bd 2642 763d
00000150: 336e 3dbd ce5d 473d bfbe a43d 5ef4 77bd
00000160: a9dc 883d c00b fcba 7de7 61bd 250b 873d
00000170: a59b 8b3d be3e d5bc 50cd b9bb b761 56bd
00000180: 09a3 933d cc26 6fbd 3695 4d3d 72d8 d5bc
00000190: a058 053d 1ab1 4f3d b03b f73b 9829 363c
000001a0: 4a9f e0bc 2a4c aabd 7ced ae3c 2818 503c
000001b0: 80ea 23bd 1a84 7e3d 99fb aa3d 3802 bbbc
000001c0: 3487 81bd 18c5 00bc 36eb 073d 361c 563d
000001d0: 961d 653d 671c 933d fc3a 813c 0428 9bbd
000001e0: a90b ac3d e67c 643d 2440 95bc ba2a 3f3d
000001f0: a957 963d c58c a23d 0029 1a3a 1479 aa3c
00000200: 740f d1bc fec6 263d b230 3d3d ce7a 693d
00000210: 98cf f23c 1afd 533d 9ea4 643d 380a 87bd
00000220: 76ac 263d e784 8fbd 10fa df3b ca55 143d
00000230: a07c 34bc 6346 a83d b839 e73c ec4b 2bbd
00000240: 668d 8bbd 19a8 21bd 4271 7a3d 3f44 a6bd
00000250: 48a5 933c aef2 18bd 71ed 873d 0a49 713d
00000260: 398b 61bd 56b2 02bd 687f 013d d866 9f3c
00000270: 72b7 0c3d 3ab0 433d ca99 1c3d 00da 6e3c
00000280: cffa 3cbd 48b0 eebc d0bc 013d 967b 82bd
00000290: e261 613d d015 a8bd ae66 83bd aab3 06bd
000002a0: 3c06 7abd 9d3d 9d3d f24d 35bd 4038 80bc
000002b0: 3025 3b3c 6037 8c3c f29b 6e3d 6ae2 363d
000002c0: b788 b13d 68d5 a0bd 24b0 c03c cef3 453d
000002d0: 2f94 5dbd d69f 68bd 78c1 99bd 3c20 bf3c
000002e0: fcee fc3c 42a0 78bd 7657 85bd ba0a 35bd
000002f0: 9170 9ebd 680a de3c 54ca b43c de7e 2dbd
00000300: aee2 4dbd 4efe a5bd 60c4 393c a039 acbb
00000310: df02 31bd 6cbd cabc 20bb e13c 45e2 8a3d
00000320: e0ea 51bb 00bf cab9 6f3f 86bd 053a 8d3d
00000330: d69b 89bd 38ac a53c 5fd2 84bd 258a 06bd
00000340: 0a5c 013d 7c0f afbc da85 7e3d 3e57 3a3d
00000350: f2a4 f6bc e86e 323c 608e 71bc 404d 793c
00000360: 16e6 693d 703b bebc 223f 703d 00ba f13a
00000370: 0437 edbc e7ac 2ebd 40a1 9f3c b772 afbd
00000380: 43f9 843d 482c 5bbd 5eb9 783d 603f b1bc
00000390: ae91 87bd 1009 083c e4c5 9ebd 0368 48bd
000003a0: cc07 d43c 30f9 72bd 4ee2 353d 7644 75bd
000003b0: aea0 493d 03b7 49bd dc82 a6bd ebe4 41bd
000003c0: 32b3 563d ec2f a5bc ac92 15bd 00d7 f0b9
000003d0: 0f54 50bd c004 bd3c 1149 8d3d 4e7c 3d3d
000003e0: 42b6 3b3d 7670 453d 4ad6 703d 6e3e 0ebd
000003f0: b69a 643d b8c2 42bc ccee 8bbd cdee ae3d

bias f4 [64]
-0.0807999 0.05530221 -0.004899889 -0.032001343 -0.06893015 -0.080721796 0.058653988 0.06898687
0.0831173 0.06572855 -0.058203004 0.07199546 0.005202599 0.044680037 0.08228492 -0.08152175
0.08760927 0.022465758 0.04084889 0.0076949373 -0.051208187 -0.07039988 0.03170038 0.023518406
-0.0050941855 0.06411699 0.04164911 -0.02138877 0.074175514 0.018602818 0.08813507 -0.030924227
0.086795874 0.07753778 0.05115301 -0.07955446 0.040611587 -0.0003421381 0.082539804 0.07054254
0.06608448 0.054840453 -0.008544967 0.07202486 0.031390212 0.025224626 -0.0064373836 -0.039096713
0.064212166 0.035284743 0.020248622 -0.031821113 -0.05047024 -0.03800595 -0.053729054 0.04381486
0.06796416 -0.050446615 0.041403256 -0.020229273 0.03235571 0.042514853 -0.07020755 -0.025127754
00000000: 6b7a a5bd 9284 623d 408f a0bb d713 03bd
00000010: 402b 8dbd 7851 a5bd 2a3f 703d fd48 8d3d
00000020: 6739 aa3d b19c 863d 4666 6ebd 5b72 933d
00000030: 907a aa3b 6a02 373d ff84 a83d e0f4 a6bd
00000040: 7d6c b33d 1c0a b83c 2a51 273d d025 fc3b
00000050: adbf 51bd d02d 90bd 42d8 013d aca9 c03c
00000060: 20ed a6bb c54f 833d 4298 2a3d 8037 afbc
00000070: 55e9 973d f064 983c 2980 b43d ce54 fdbc
00000080: 09c2 b13d 21cc 9e3d d285 513d 73ed a2bd
00000090: 5658 263d 0061 b3b9 a10a a93d 9b78 903d
000000a0: 4d57 873d 62a0 603d 3000 0cbc c581 933d
000000b0: 0693 003d e0a3 ce3c b0f0 d2bb e023 20bd
000000c0: ab81 833d bc86 103d 70e0 a53c db56 02bd
000000d0: e2b9 4ebd 21ac 1bbd ff12 5cbd 3677 333d
000000e0: cb30 8b3d 1ca1 4ebd 7696 293d dcb7 a5bc
000000f0: 6c87 043d 0e24 2e3d fac8 8fbd b8d8 cdbc

weight f4 [1, 64]
0.10546908 -0.076933056 0.092244744 0.05531372 0.017289504 0.059929803 -0.07275148 -0.022624359
-0.007826686 0.007905021 -0.03847246 0.116390884 -0.018294737 -0.054038793 -0.030693695 -0.07272725
-0.030021533 -0.022359341 -0.09179008 -0.025455222 -0.078794464 0.0999573 -0.016853958 -0.022819564
0.020726353 -0.071299285 0.12220591 0.09147768 0.07146989 0.10268691 0.025422007 -0.0014872253
-0.056384042 0.012635037 -0.09418669 -0.06290458 0.088920176 0.099107176 0.030974403 -0.07672411
0.038335532 -0.103885815 0.07767734 -0.06985021 0.10747698 0.02164431 0.07376197 -0.11383392
-0.09874791 -0.07678446 -0.08321215 0.03334807 0.05528502 -0.08560711 -0.083626196 0.0024336576
-0.03462276 0.10845213 -0.071407735 0.015419215 -0.03614101 0.022716597 -0.0614921 0.05704339
00000000: 2c00 d83d 148f 9dbd d0ea bc3d a490 623d
00000010: b8a2 8d3c f478 753d bafe 94bd b856 b9bc
00000020: 803b 00bc 1084 013c 4c95 1dbd 585e ee3d
00000030: d8de 95bc c857 5dbd 5871 fbbc 06f2 94bd
00000040: b8ef f5bc f02a b7bc 70fc bbbd 7887 d0bc
00000050: fe5e a1bd 6ab6 cc3d 5011 8abc 18f0 babc
00000060: 50ca a93c 5c05 92bd 1847 fa3d a658 bb3d
00000070: ce5e 923d 844d d23d d041 d03c 00ef c2ba
00000080: f4f2 66bd 3003 4f3c f4e4 c0bd 1ed4 80bd
00000090: c81b b63d b4f8 ca3d 08be fd3c 8821 9dbd
000000a0: b805 1d3d 16c2 d4bd 4c15 9f3d a00d 8fbd
000000b0: e41c dc3d 684f b13c 8410 973d c221 e9bd
000000c0: 583c cabd 2c41 9dbd 226b aabd fc97 083d
000000d0: 8c72 623d c852 afbd 3644 abbd 007e 1f3b
000000e0: 98d0 0dbd 261c de3d 383e 92bd e0a0 7c3c
000000f0: 9808 14bd 2818 ba3c 24df 7bbd 54a6 693d
